…
                    :activation "softmax"))))

  (setv model (Model :inputs visible :outputs output))
#+END_SRC


Model summary.
#+BEGIN_SRC hy :mkdirp yes :exports code :tangle ./export/cnnc/cnnc.hy
  (print (.summary model))
#+END_SRC


#+BEGIN_EXAMPLE
  _________________________________________________________________
  Layer (type)                 Output Shape              Param #
  =================================================================
  input_1 (InputLayer)         [(None, 32, 32, 3)]       0
  _________________________________________________________________
  conv2d_5 (Conv2D)            (None, 32, 32, 32)        896
  _________________________________________________________________
  dropout_5 (Dropout)          (None, 32, 32, 32)        0
  _________________________________________________________________
  conv2d_4 (Conv2D)            (None, 32, 32, 32)        9248
  _________________________________________________________________
  max_pooling2d_2 (MaxPooling2 (None, 16, 16, 32)        0
  _________________________________________________________________
  conv2d_3 (Conv2D)            (None, 16, 16, 64)        18496
  _________________________________________________________________
  dropout_4 (Dropout)          (None, 16, 16, 64)        0
  _________________________________________________________________
  conv2d_2 (Conv2D)            (None, 16, 16, 64)        36928
  _________________________________________________________________
  max_pooling2d_1 (MaxPooling2 (None, 8, 8, 64)          0
  _________________________________________________________________
  conv2d_1 (Conv2D)            (None, 8, 8, 128)         73856
  _________________________________________________________________
  dropout_3 (Dropout)          (None, 8, 8, 128)         0
  _________________________________________________________________
  conv2d (Conv2D)              (None, 8, 8, 128)         147584
  _________________________________________________________________
  max_pooling2d (MaxPooling2D) (None, 4, 4, 128)         0
  _________________________________________________________________
  flatten (Flatten)            (None, 2048)              0
  _________________________________________________________________
  dropout_2 (Dropout)          (None, 2048)              0
  _________________________________________________________________
  dense_2 (Dense)              (None, 1024)              2098176
  _________________________________________________________________
  dropout_1 (Dropout)          (None, 1024)              0
  _________________________________________________________________
  dense_1 (Dense)              (None, 512)               524800
  _________________________________________________________________
  dropout (Dropout)            (None, 512)               0
  _________________________________________________________________
  dense (Dense)                (None, 10)                5130
  =================================================================
  Total params: 2,915,114
  Trainable params: 2,915,114
  Non-trainable params: 0
  _________________________________________________________________
#+END_EXAMPLE


Compile the model with specific parameters.
#+BEGIN_SRC hy :mkdirp yes :exports code :tangle ./export/cnnc/cnnc.hy
  (setv lrate 0.01)
  (setv sgd (SGD :lr lrate :momentum 0.9 :nesterov False))
…
                    :activation "softmax"))))
  (setv model (Model :inputs visible :outputs output))
#+END_SRC


Model summary.
#+BEGIN_SRC hy :mkdirp yes :exports code :tangle ./export/mnist/mnist.hy
  (print (.summary model))
#+END_SRC


#+BEGIN_EXAMPLE
  _________________________________________________________________
  Layer (type)                 Output Shape              Param #
  =================================================================
  input_1 (InputLayer)         [(None, 28, 28, 1)]       0
  _________________________________________________________________
  conv2d_1 (Conv2D)            (None, 26, 26, 32)        320
  _________________________________________________________________
  conv2d (Conv2D)              (None, 24, 24, 64)        18496
  _________________________________________________________________
  max_pooling2d (MaxPooling2D) (None, 12, 12, 64)        0
  _________________________________________________________________
  dropout_1 (Dropout)          (None, 12, 12, 64)        0
  _________________________________________________________________
  flatten (Flatten)            (None, 9216)              0
  _________________________________________________________________
  dense_1 (Dense)              (None, 128)               1179776
  _________________________________________________________________
  dropout (Dropout)            (None, 128)               0
  _________________________________________________________________
  dense (Dense)                (None, 10)                1290
  =================================================================
  Total params: 1,199,882
  Trainable params: 1,199,882
  Non-trainable params: 0
  _________________________________________________________________
#+END_EXAMPLE


Compile and train the model with specific parameters.
#+BEGIN_SRC hy :mkdirp yes :exports code :tangle ./export/mnist/mnist.hy
  (.compile model
            :loss "categorical_crossentropy"
…
